…
        },
        "id": "2KN1brGw0mxu",
        "outputId": "12af38fa-6ac1-4331-9653-8bc9962b764e"
      },
      "source": [
        "model.summary()"
      ],
      "execution_count": 16,
      "outputs": [
        {
          "output_type": "stream",
          "text": [
            "Model: \"sequential\"\n",
            "_________________________________________________________________\n",
            "Layer (type)                 Output Shape              Param #   \n",
            "=================================================================\n",
            "conv2d (Conv2D)              (None, 26, 26, 64)        640       \n",
            "_________________________________________________________________\n",
            "batch_normalization (BatchNo (None, 26, 26, 64)        256       \n",
            "_________________________________________________________________\n",
            "conv2d_1 (Conv2D)            (None, 24, 24, 64)        36928     \n",
            "_________________________________________________________________\n",
            "batch_normalization_1 (Batch (None, 24, 24, 64)        256       \n",
            "_________________________________________________________________\n",
            "max_pooling2d (MaxPooling2D) (None, 12, 12, 64)        0         \n",
            "_________________________________________________________________\n",
            "conv2d_2 (Conv2D)            (None, 10, 10, 128)       73856     \n",
            "_________________________________________________________________\n",
            "batch_normalization_2 (Batch (None, 10, 10, 128)       512       \n",
            "_________________________________________________________________\n",
            "conv2d_3 (Conv2D)            (None, 8, 8, 128)         147584    \n",
            "_________________________________________________________________\n",
            "batch_normalization_3 (Batch (None, 8, 8, 128)         512       \n",
            "_________________________________________________________________\n",
            "max_pooling2d_1 (MaxPooling2 (None, 4, 4, 128)         0         \n",
            "_________________________________________________________________\n",
            "flatten (Flatten)            (None, 2048)              0         \n",
            "_________________________________________________________________\n",
            "batch_normalization_4 (Batch (None, 2048)              8192      \n",
            "_________________________________________________________________\n",
            "dense (Dense)                (None, 256)               524544    \n",
            "_________________________________________________________________\n",
            "batch_normalization_5 (Batch (None, 256)               1024      \n",
            "_________________________________________________________________\n",
            "dense_1 (Dense)              (None, 26)                6682      \n",
            "=================================================================\n",
            "Total params: 800,986\n",
            "Trainable params: 795,610\n",
            "Non-trainable params: 5,376\n",
            "_________________________________________________________________\n"
          ],
          "name": "stdout"
        }
      ]
    },
    {
      "cell_type": "markdown",
…
